…
iter_size: 1
I0310 13:27:14.839813 21839 solver.cpp:77] Creating training net from train_net file: trainval.prototxt
I0310 13:27:14.842334 21839 net.cpp:53] Initializing net from parameters: 
state {
  phase: TRAIN
}
layer {
  name: "data"
  type: "Python"
  top: "data"
  top: "label"
  python_param {
    module: "nyu_normals_layers"
    layer: "NYUDNormalDataLayer"
    param_str: "{\'tops\': [\'color\', \'label\'], \'seed\': 1337, \'nyud_dir\': \'/scratch/xiaolonw/surface_normals\', \'split\': \'/scratch/xiaolonw/surface_normals/trainlist.txt\'}"
  }
}
layer {
  name: "conv1_1"
  type: "Convolution"
  bottom: "data"
  top: "conv1_1"
  param {
    lr_mult: 1
    decay_mult: 1
  }
  param {
    lr_mult: 2
    decay_mult: 0
  }
  convolution_param {
    num_output: 64
    pad: 68
    kernel_size: 3
    stride: 1
  }
}
layer {
  name: "relu1_1"
  type: "ReLU"
  bottom: "conv1_1"
  top: "conv1_1"
}
layer {
  name: "conv1_2"
  type: "Convolution"
  bottom: "conv1_1"
  top: "conv1_2"
  param {
    lr_mult: 1
    decay_mult: 1
  }
  param {
    lr_mult: 2
    decay_mult: 0
  }
  convolution_param {
    num_output: 64
    pad: 1
    kernel_size: 3
    stride: 1
  }
}
layer {
  name: "relu1_2"
  type: "ReLU"
  bottom: "conv1_2"
  top: "conv1_2"
}
layer {
  name: "pool1"
  type: "Pooling"
  bottom: "conv1_2"
  top: "pool1"
  pooling_param {
    pool: MAX
    kernel_size: 2
    stride: 2
  }
}
layer {
  name: "conv2_1"
  type: "Convolution"
  bottom: "pool1"
  top: "conv2_1"
  param {
    lr_mult: 1
    decay_mult: 1
  }
  param {
    lr_mult: 2
    decay_mult: 0
  }
  convolution_param {
    num_output: 128
    pad: 1
    kernel_size: 3
    stride: 1
  }
}
layer {
  name: "relu2_1"
  type: "ReLU"
  bottom: "conv2_1"
  top: "conv2_1"
}
layer {
  name: "conv2_2"
  type: "Convolution"
  bottom: "conv2_1"
  top: "conv2_2"
  param {
    lr_mult: 1
    decay_mult: 1
  }
  param {
    lr_mult: 2
    decay_mult: 0
  }
  convolution_param {
    num_output: 128
    pad: 1
    kernel_size: 3
    stride: 1
  }
}
layer {
  name: "relu2_2"
  type: "ReLU"
  bottom: "conv2_2"
  top: "conv2_2"
}
layer {
  name: "pool2"
  type: "Pooling"
  bottom: "conv2_2"
  top: "pool2"
  pooling_param {
    pool: MAX
    kernel_size: 2
    stride: 2
  }
}
layer {
  name: "conv3_1"
  type: "Convolution"
  bottom: "pool2"
  top: "conv3_1"
  param {
    lr_mult: 1
    decay_mult: 1
  }
  param {
    lr_mult: 2
    decay_mult: 0
  }
  convolution_param {
    num_output: 256
    pad: 1
    kernel_size: 3
    stride: 1
  }
}
layer {
  name: "relu3_1"
  type: "ReLU"
  bottom: "conv3_1"
  top: "conv3_1"
}
layer {
  name: "conv3_2"
  type: "Convolution"
  bottom: "conv3_1"
  top: "conv3_2"
  param {
    lr_mult: 1
    decay_mult: 1
  }
  param {
    lr_mult: 2
    decay_mult: 0
  }
  convolution_param {
    num_output: 256
    pad: 1
    kernel_size: 3
    stride: 1
  }
}
layer {
  name: "relu3_2"
  type: "ReLU"
  bottom: "conv3_2"
  top: "conv3_2"
}
layer {
  name: "conv3_3"
  type: "Convolution"
  bottom: "conv3_2"
  top: "conv3_3"
  param {
    lr_mult: 1
    decay_mult: 1
  }
  param {
    lr_mult: 2
    decay_mult: 0
  }
  convolution_param {
    num_output: 256
    pad: 1
    kernel_size: 3
    stride: 1
  }
}
layer {
  name: "relu3_3"
  type: "ReLU"
  bottom: "conv3_3"
  top: "conv3_3"
}
layer {
  name: "pool3"
  type: "Pooling"
  bottom: "conv3_3"
  top: "pool3"
  pooling_param {
    pool: MAX
    kernel_size: 2
    stride: 2
  }
}
layer {
  name: "conv4_1"
  type: "Convolution"
  bottom: "pool3"
  top: "conv4_1"
  param {
    lr_mult: 1
    decay_mult: 1
  }
  param {
    lr_mult: 2
    decay_mult: 0
  }
  convolution_param {
    num_output: 512
    pad: 1
    kernel_size: 3
    stride: 1
  }
}
layer {
  name: "relu4_1"
  type: "ReLU"
  bottom: "conv4_1"
  top: "conv4_1"
}
layer {
  name: "conv4_2"
  type: "Convolution"
  bottom: "conv4_1"
  top: "conv4_2"
  param {
    lr_mult: 1
    decay_mult: 1
  }
  param {
    lr_mult: 2
    decay_mult: 0
  }
  convolution_param {
    num_output: 512
    pad: 1
    kernel_size: 3
    stride: 1
  }
}
layer {
  name: "relu4_2"
  type: "ReLU"
  bottom: "conv4_2"
  top: "conv4_2"
}
layer {
  name: "conv4_3"
  type: "Convolution"
  bottom: "conv4_2"
  top: "conv4_3"
  param {
    lr_mult: 1
    decay_mult: 1
  }
  param {
    lr_mult: 2
    decay_mult: 0
  }
  convolution_param {
    num_output: 512
    pad: 1
    kernel_size: 3
    stride: 1
  }
}
layer {
  name: "relu4_3"
  type: "ReLU"
  bottom: "conv4_3"
  top: "conv4_3"
}
layer {
  name: "pool4"
  type: "Pooling"
  bottom: "conv4_3"
  top: "pool4"
  pooling_param {
    pool: MAX
    kernel_size: 2
    stride: 2
  }
}
layer {
  name: "conv5_1"
  type: "Convolution"
  bottom: "pool4"
  top: "conv5_1"
  param {
    lr_mult: 1
    decay_mult: 1
  }
  param {
    lr_mult: 2
    decay_mult: 0
  }
  convolution_param {
    num_output: 512
    pad: 1
    kernel_size: 3
    stride: 1
  }
}
layer {
  name: "relu5_1"
  type: "ReLU"
  bottom: "conv5_1"
  top: "conv5_1"
}
layer {
  name: "conv5_2"
  type: "Convolution"
  bottom: "conv5_1"
  top: "conv5_2"
  param {
    lr_mult: 1
    decay_mult: 1
  }
  param {
    lr_mult: 2
    decay_mult: 0
  }
  convolution_param {
    num_output: 512
    pad: 1
    kernel_size: 3
    stride: 1
  }
}
layer {
  name: "relu5_2"
  type: "ReLU"
  bottom: "conv5_2"
  top: "conv5_2"
}
layer {
  name: "conv5_3"
  type: "Convolution"
  bottom: "conv5_2"
  top: "conv5_3"
  param {
    lr_mult: 1
    decay_mult: 1
  }
  param {
    lr_mult: 2
    decay_mult: 0
  }
  convolution_param {
    num_output: 512
    pad: 1
    kernel_size: 3
    stride: 1
  }
}
layer {
  name: "relu5_3"
  type: "ReLU"
  bottom: "conv5_3"
  top: "conv5_3"
}
layer {
  name: "pool5"
  type: "Pooling"
  bottom: "conv5_3"
  top: "pool5"
  pooling_param {
    pool: MAX
    kernel_size: 2
    stride: 2
  }
}
layer {
  name: "fc6_un"
  type: "Convolution"
  bottom: "pool5"
  top: "fc6_un"
  param {
    lr_mult: 1
    decay_mult: 1
  }
  param {
    lr_mult: 2
    decay_mult: 0
  }
  convolution_param {
    num_output: 4096
    pad: 0
    kernel_size: 7
    stride: 1
    weight_filler {
      type: "xavier"
    }
    bias_filler {
      type: "constant"
      value: 0
    }
  }
}
layer {
  name: "relu6"
  type: "ReLU"
  bottom: "fc6_un"
  top: "fc6_un"
}
layer {
  name: "drop6"
  type: "Dropout"
  bottom: "fc6_un"
  top: "fc6_un"
  dropout_param {
    dropout_ratio: 0.5
  }
}
layer {
  name: "fc7_un"
  type: "Convolution"
  bottom: "fc6_un"
  top: "fc7_un"
  param {
    lr_mult: 1
    decay_mult: 1
  }
  param {
    lr_mult: 2
    decay_mult: 0
  }
  convolution_param {
    num_output: 4096
    pad: 0
    kernel_size: 1
    stride: 1
    weight_filler {
      type: "xavier"
    }
    bias_filler {
      type: "constant"
      value: 0
    }
  }
}
layer {
  name: "relu7"
  type: "ReLU"
  bottom: "fc7_un"
  top: "fc7_un"
}
layer {
  name: "drop7"
  type: "Dropout"
  bottom: "fc7_un"
  top: "fc7_un"
  dropout_param {
    dropout_ratio: 0.5
  }
}
layer {
  name: "score_fr"
  type: "Convolution"
  bottom: "fc7_un"
  top: "score_fr"
  param {
    lr_mult: 1
    decay_mult: 1
  }
  param {
    lr_mult: 2
    decay_mult: 0
  }
  convolution_param {
    num_output: 40
    pad: 0
    kernel_size: 1
    weight_filler {
      type: "xavier"
    }
    bias_filler {
      type: "constant"
      value: 0
    }
  }
}
layer {
  name: "upscore_normal"
  type: "Deconvolution"
  bottom: "score_fr"
  top: "upscore_normal"
  param {
    lr_mult: 0
  }
  convolution_param {
    num_output: 40
    bias_term: false
    kernel_size: 4
    stride: 2
  }
}
layer {
  name: "loss"
  type: "SoftmaxWithLoss"
  bottom: "upscore_normal"
  bottom: "label"
  top: "loss"
  loss_param {
    ignore_label: 255
    normalize: false
  }
}
I0310 13:27:14.842483 21839 layer_factory.hpp:77] Creating layer data
I0310 13:27:14.888680 21839 net.cpp:86] Creating Layer data
I0310 13:27:14.888695 21839 net.cpp:382] data -> data
I0310 13:27:14.888706 21839 net.cpp:382] data -> label
I0310 13:27:14.945785 21839 net.cpp:124] Setting up data
I0310 13:27:14.945801 21839 net.cpp:131] Top shape: 1 3 512 512 (786432)
I0310 13:27:14.945806 21839 net.cpp:131] Top shape: 1 1 32 32 (1024)
I0310 13:27:14.945809 21839 net.cpp:139] Memory required for data: 3149824
I0310 13:27:14.945813 21839 layer_factory.hpp:77] Creating layer conv1_1
I0310 13:27:14.945828 21839 net.cpp:86] Creating Layer conv1_1
I0310 13:27:14.945833 21839 net.cpp:408] conv1_1 <- data
I0310 13:27:14.945842 21839 net.cpp:382] conv1_1 -> conv1_1
I0310 13:27:15.088331 21839 net.cpp:124] Setting up conv1_1
I0310 13:27:15.088357 21839 net.cpp:131] Top shape: 1 64 646 646 (26708224)
I0310 13:27:15.088361 21839 net.cpp:139] Memory required for data: 109982720
I0310 13:27:15.088382 21839 layer_factory.hpp:77] Creating layer relu1_1
I0310 13:27:15.088400 21839 net.cpp:86] Creating Layer relu1_1
I0310 13:27:15.088405 21839 net.cpp:408] relu1_1 <- conv1_1
I0310 13:27:15.088413 21839 net.cpp:369] relu1_1 -> conv1_1 (in-place)
I0310 13:27:15.088596 21839 net.cpp:124] Setting up relu1_1
I0310 13:27:15.088604 21839 net.cpp:131] Top shape: 1 64 646 646 (26708224)
I0310 13:27:15.088609 21839 net.cpp:139] Memory required for data: 216815616
I0310 13:27:15.088613 21839 layer_factory.hpp:77] Creating layer conv1_2
I0310 13:27:15.088624 21839 net.cpp:86] Creating Layer conv1_2
I0310 13:27:15.088629 21839 net.cpp:408] conv1_2 <- conv1_1
I0310 13:27:15.088634 21839 net.cpp:382] conv1_2 -> conv1_2
I0310 13:27:15.091212 21839 net.cpp:124] Setting up conv1_2
I0310 13:27:15.091226 21839 net.cpp:131] Top shape: 1 64 646 646 (26708224)
I0310 13:27:15.091229 21839 net.cpp:139] Memory required for data: 323648512
I0310 13:27:15.091241 21839 layer_factory.hpp:77] Creating layer relu1_2
I0310 13:27:15.091249 21839 net.cpp:86] Creating Layer relu1_2
I0310 13:27:15.091253 21839 net.cpp:408] relu1_2 <- conv1_2
I0310 13:27:15.091259 21839 net.cpp:369] relu1_2 -> conv1_2 (in-place)
I0310 13:27:15.091576 21839 net.cpp:124] Setting up relu1_2
I0310 13:27:15.091588 21839 net.cpp:131] Top shape: 1 64 646 646 (26708224)
I0310 13:27:15.091591 21839 net.cpp:139] Memory required for data: 430481408
I0310 13:27:15.091594 21839 layer_factory.hpp:77] Creating layer pool1
I0310 13:27:15.091603 21839 net.cpp:86] Creating Layer pool1
I0310 13:27:15.091605 21839 net.cpp:408] pool1 <- conv1_2
I0310 13:27:15.091615 21839 net.cpp:382] pool1 -> pool1
I0310 13:27:15.091667 21839 net.cpp:124] Setting up pool1
I0310 13:27:15.091675 21839 net.cpp:131] Top shape: 1 64 323 323 (6677056)
I0310 13:27:15.091680 21839 net.cpp:139] Memory required for data: 457189632
I0310 13:27:15.091681 21839 layer_factory.hpp:77] Creating layer conv2_1
I0310 13:27:15.091689 21839 net.cpp:86] Creating Layer conv2_1
I0310 13:27:15.091693 21839 net.cpp:408] conv2_1 <- pool1
I0310 13:27:15.091701 21839 net.cpp:382] conv2_1 -> conv2_1
I0310 13:27:15.093487 21839 net.cpp:124] Setting up conv2_1
I0310 13:27:15.093500 21839 net.cpp:131] Top shape: 1 128 323 323 (13354112)
I0310 13:27:15.093507 21839 net.cpp:139] Memory required for data: 510606080
I0310 13:27:15.093516 21839 layer_factory.hpp:77] Creating layer relu2_1
I0310 13:27:15.093523 21839 net.cpp:86] Creating Layer relu2_1
I0310 13:27:15.093526 21839 net.cpp:408] relu2_1 <- conv2_1
I0310 13:27:15.093531 21839 net.cpp:369] relu2_1 -> conv2_1 (in-place)
I0310 13:27:15.093731 21839 net.cpp:124] Setting up relu2_1
I0310 13:27:15.093741 21839 net.cpp:131] Top shape: 1 128 323 323 (13354112)
I0310 13:27:15.093745 21839 net.cpp:139] Memory required for data: 564022528
I0310 13:27:15.093749 21839 layer_factory.hpp:77] Creating layer conv2_2
I0310 13:27:15.093760 21839 net.cpp:86] Creating Layer conv2_2
I0310 13:27:15.093767 21839 net.cpp:408] conv2_2 <- conv2_1
I0310 13:27:15.093776 21839 net.cpp:382] conv2_2 -> conv2_2
I0310 13:27:15.095541 21839 net.cpp:124] Setting up conv2_2
I0310 13:27:15.095557 21839 net.cpp:131] Top shape: 1 128 323 323 (13354112)
I0310 13:27:15.095561 21839 net.cpp:139] Memory required for data: 617438976
I0310 13:27:15.095567 21839 layer_factory.hpp:77] Creating layer relu2_2
I0310 13:27:15.095576 21839 net.cpp:86] Creating Layer relu2_2
I0310 13:27:15.095579 21839 net.cpp:408] relu2_2 <- conv2_2
I0310 13:27:15.095587 21839 net.cpp:369] relu2_2 -> conv2_2 (in-place)
I0310 13:27:15.095778 21839 net.cpp:124] Setting up relu2_2
I0310 13:27:15.095787 21839 net.cpp:131] Top shape: 1 128 323 323 (13354112)
I0310 13:27:15.095790 21839 net.cpp:139] Memory required for data: 670855424
I0310 13:27:15.095793 21839 layer_factory.hpp:77] Creating layer pool2
I0310 13:27:15.095804 21839 net.cpp:86] Creating Layer pool2
I0310 13:27:15.095808 21839 net.cpp:408] pool2 <- conv2_2
I0310 13:27:15.095813 21839 net.cpp:382] pool2 -> pool2
I0310 13:27:15.095860 21839 net.cpp:124] Setting up pool2
I0310 13:27:15.095865 21839 net.cpp:131] Top shape: 1 128 162 162 (3359232)
I0310 13:27:15.095870 21839 net.cpp:139] Memory required for data: 684292352
I0310 13:27:15.095872 21839 layer_factory.hpp:77] Creating layer conv3_1
I0310 13:27:15.095881 21839 net.cpp:86] Creating Layer conv3_1
I0310 13:27:15.095885 21839 net.cpp:408] conv3_1 <- pool2
I0310 13:27:15.095891 21839 net.cpp:382] conv3_1 -> conv3_1
I0310 13:27:15.097713 21839 net.cpp:124] Setting up conv3_1
I0310 13:27:15.097728 21839 net.cpp:131] Top shape: 1 256 162 162 (6718464)
I0310 13:27:15.097731 21839 net.cpp:139] Memory required for data: 711166208
I0310 13:27:15.097741 21839 layer_factory.hpp:77] Creating layer relu3_1
I0310 13:27:15.097749 21839 net.cpp:86] Creating Layer relu3_1
I0310 13:27:15.097754 21839 net.cpp:408] relu3_1 <- conv3_1
I0310 13:27:15.097757 21839 net.cpp:369] relu3_1 -> conv3_1 (in-place)
I0310 13:27:15.098071 21839 net.cpp:124] Setting up relu3_1
I0310 13:27:15.098083 21839 net.cpp:131] Top shape: 1 256 162 162 (6718464)
I0310 13:27:15.098086 21839 net.cpp:139] Memory required for data: 738040064
I0310 13:27:15.098089 21839 layer_factory.hpp:77] Creating layer conv3_2
I0310 13:27:15.098099 21839 net.cpp:86] Creating Layer conv3_2
I0310 13:27:15.098104 21839 net.cpp:408] conv3_2 <- conv3_1
I0310 13:27:15.098114 21839 net.cpp:382] conv3_2 -> conv3_2
I0310 13:27:15.100668 21839 net.cpp:124] Setting up conv3_2
I0310 13:27:15.100682 21839 net.cpp:131] Top shape: 1 256 162 162 (6718464)
I0310 13:27:15.100685 21839 net.cpp:139] Memory required for data: 764913920
I0310 13:27:15.100692 21839 layer_factory.hpp:77] Creating layer relu3_2
I0310 13:27:15.100698 21839 net.cpp:86] Creating Layer relu3_2
I0310 13:27:15.100703 21839 net.cpp:408] relu3_2 <- conv3_2
I0310 13:27:15.100708 21839 net.cpp:369] relu3_2 -> conv3_2 (in-place)
I0310 13:27:15.100898 21839 net.cpp:124] Setting up relu3_2
I0310 13:27:15.100908 21839 net.cpp:131] Top shape: 1 256 162 162 (6718464)
I0310 13:27:15.100911 21839 net.cpp:139] Memory required for data: 791787776
I0310 13:27:15.100914 21839 layer_factory.hpp:77] Creating layer conv3_3
I0310 13:27:15.100924 21839 net.cpp:86] Creating Layer conv3_3
I0310 13:27:15.100929 21839 net.cpp:408] conv3_3 <- conv3_2
I0310 13:27:15.100935 21839 net.cpp:382] conv3_3 -> conv3_3
I0310 13:27:15.103471 21839 net.cpp:124] Setting up conv3_3
I0310 13:27:15.103484 21839 net.cpp:131] Top shape: 1 256 162 162 (6718464)
I0310 13:27:15.103487 21839 net.cpp:139] Memory required for data: 818661632
I0310 13:27:15.103494 21839 layer_factory.hpp:77] Creating layer relu3_3
I0310 13:27:15.103504 21839 net.cpp:86] Creating Layer relu3_3
I0310 13:27:15.103507 21839 net.cpp:408] relu3_3 <- conv3_3
I0310 13:27:15.103513 21839 net.cpp:369] relu3_3 -> conv3_3 (in-place)
I0310 13:27:15.103705 21839 net.cpp:124] Setting up relu3_3
I0310 13:27:15.103718 21839 net.cpp:131] Top shape: 1 256 162 162 (6718464)
I0310 13:27:15.103720 21839 net.cpp:139] Memory required for data: 845535488
I0310 13:27:15.103724 21839 layer_factory.hpp:77] Creating layer pool3
I0310 13:27:15.103729 21839 net.cpp:86] Creating Layer pool3
I0310 13:27:15.103734 21839 net.cpp:408] pool3 <- conv3_3
I0310 13:27:15.103741 21839 net.cpp:382] pool3 -> pool3
I0310 13:27:15.103787 21839 net.cpp:124] Setting up pool3
I0310 13:27:15.103793 21839 net.cpp:131] Top shape: 1 256 81 81 (1679616)
I0310 13:27:15.103797 21839 net.cpp:139] Memory required for data: 852253952
I0310 13:27:15.103799 21839 layer_factory.hpp:77] Creating layer conv4_1
I0310 13:27:15.103809 21839 net.cpp:86] Creating Layer conv4_1
I0310 13:27:15.103813 21839 net.cpp:408] conv4_1 <- pool3
I0310 13:27:15.103819 21839 net.cpp:382] conv4_1 -> conv4_1
I0310 13:27:15.108682 21839 net.cpp:124] Setting up conv4_1
I0310 13:27:15.108697 21839 net.cpp:131] Top shape: 1 512 81 81 (3359232)
I0310 13:27:15.108701 21839 net.cpp:139] Memory required for data: 865690880
I0310 13:27:15.108708 21839 layer_factory.hpp:77] Creating layer relu4_1
I0310 13:27:15.108716 21839 net.cpp:86] Creating Layer relu4_1
I0310 13:27:15.108721 21839 net.cpp:408] relu4_1 <- conv4_1
I0310 13:27:15.108726 21839 net.cpp:369] relu4_1 -> conv4_1 (in-place)
I0310 13:27:15.109055 21839 net.cpp:124] Setting up relu4_1
I0310 13:27:15.109067 21839 net.cpp:131] Top shape: 1 512 81 81 (3359232)
I0310 13:27:15.109072 21839 net.cpp:139] Memory required for data: 879127808
I0310 13:27:15.109076 21839 layer_factory.hpp:77] Creating layer conv4_2
I0310 13:27:15.109086 21839 net.cpp:86] Creating Layer conv4_2
I0310 13:27:15.109091 21839 net.cpp:408] conv4_2 <- conv4_1
I0310 13:27:15.109098 21839 net.cpp:382] conv4_2 -> conv4_2
I0310 13:27:15.115460 21839 net.cpp:124] Setting up conv4_2
I0310 13:27:15.115473 21839 net.cpp:131] Top shape: 1 512 81 81 (3359232)
I0310 13:27:15.115478 21839 net.cpp:139] Memory required for data: 892564736
I0310 13:27:15.115489 21839 layer_factory.hpp:77] Creating layer relu4_2
I0310 13:27:15.115496 21839 net.cpp:86] Creating Layer relu4_2
I0310 13:27:15.115500 21839 net.cpp:408] relu4_2 <- conv4_2
I0310 13:27:15.115507 21839 net.cpp:369] relu4_2 -> conv4_2 (in-place)
I0310 13:27:15.115697 21839 net.cpp:124] Setting up relu4_2
I0310 13:27:15.115705 21839 net.cpp:131] Top shape: 1 512 81 81 (3359232)
I0310 13:27:15.115710 21839 net.cpp:139] Memory required for data: 906001664
I0310 13:27:15.115712 21839 layer_factory.hpp:77] Creating layer conv4_3
I0310 13:27:15.115725 21839 net.cpp:86] Creating Layer conv4_3
I0310 13:27:15.115730 21839 net.cpp:408] conv4_3 <- conv4_2
I0310 13:27:15.115736 21839 net.cpp:382] conv4_3 -> conv4_3
I0310 13:27:15.122047 21839 net.cpp:124] Setting up conv4_3
I0310 13:27:15.122061 21839 net.cpp:131] Top shape: 1 512 81 81 (3359232)
I0310 13:27:15.122066 21839 net.cpp:139] Memory required for data: 919438592
I0310 13:27:15.122071 21839 layer_factory.hpp:77] Creating layer relu4_3
I0310 13:27:15.122079 21839 net.cpp:86] Creating Layer relu4_3
I0310 13:27:15.122083 21839 net.cpp:408] relu4_3 <- conv4_3
I0310 13:27:15.122088 21839 net.cpp:369] relu4_3 -> conv4_3 (in-place)
I0310 13:27:15.122279 21839 net.cpp:124] Setting up relu4_3
I0310 13:27:15.122287 21839 net.cpp:131] Top shape: 1 512 81 81 (3359232)
I0310 13:27:15.122292 21839 net.cpp:139] Memory required for data: 932875520
I0310 13:27:15.122294 21839 layer_factory.hpp:77] Creating layer pool4
I0310 13:27:15.122303 21839 net.cpp:86] Creating Layer pool4
I0310 13:27:15.122306 21839 net.cpp:408] pool4 <- conv4_3
I0310 13:27:15.122313 21839 net.cpp:382] pool4 -> pool4
I0310 13:27:15.122362 21839 net.cpp:124] Setting up pool4
I0310 13:27:15.122369 21839 net.cpp:131] Top shape: 1 512 41 41 (860672)
I0310 13:27:15.122373 21839 net.cpp:139] Memory required for data: 936318208
I0310 13:27:15.122376 21839 layer_factory.hpp:77] Creating layer conv5_1
I0310 13:27:15.122385 21839 net.cpp:86] Creating Layer conv5_1
I0310 13:27:15.122390 21839 net.cpp:408] conv5_1 <- pool4
I0310 13:27:15.122400 21839 net.cpp:382] conv5_1 -> conv5_1
I0310 13:27:15.128682 21839 net.cpp:124] Setting up conv5_1
I0310 13:27:15.128696 21839 net.cpp:131] Top shape: 1 512 41 41 (860672)
I0310 13:27:15.128700 21839 net.cpp:139] Memory required for data: 939760896
I0310 13:27:15.128706 21839 layer_factory.hpp:77] Creating layer relu5_1
I0310 13:27:15.128715 21839 net.cpp:86] Creating Layer relu5_1
I0310 13:27:15.128718 21839 net.cpp:408] relu5_1 <- conv5_1
I0310 13:27:15.128723 21839 net.cpp:369] relu5_1 -> conv5_1 (in-place)
I0310 13:27:15.129035 21839 net.cpp:124] Setting up relu5_1
I0310 13:27:15.129046 21839 net.cpp:131] Top shape: 1 512 41 41 (860672)
I0310 13:27:15.129050 21839 net.cpp:139] Memory required for data: 943203584
I0310 13:27:15.129053 21839 layer_factory.hpp:77] Creating layer conv5_2
I0310 13:27:15.129065 21839 net.cpp:86] Creating Layer conv5_2
I0310 13:27:15.129070 21839 net.cpp:408] conv5_2 <- conv5_1
I0310 13:27:15.129078 21839 net.cpp:382] conv5_2 -> conv5_2
I0310 13:27:15.135359 21839 net.cpp:124] Setting up conv5_2
I0310 13:27:15.135372 21839 net.cpp:131] Top shape: 1 512 41 41 (860672)
I0310 13:27:15.135376 21839 net.cpp:139] Memory required for data: 946646272
I0310 13:27:15.135382 21839 layer_factory.hpp:77] Creating layer relu5_2
I0310 13:27:15.135390 21839 net.cpp:86] Creating Layer relu5_2
I0310 13:27:15.135396 21839 net.cpp:408] relu5_2 <- conv5_2
I0310 13:27:15.135404 21839 net.cpp:369] relu5_2 -> conv5_2 (in-place)
I0310 13:27:15.135599 21839 net.cpp:124] Setting up relu5_2
I0310 13:27:15.135607 21839 net.cpp:131] Top shape: 1 512 41 41 (860672)
I0310 13:27:15.135612 21839 net.cpp:139] Memory required for data: 950088960
I0310 13:27:15.135614 21839 layer_factory.hpp:77] Creating layer conv5_3
I0310 13:27:15.135625 21839 net.cpp:86] Creating Layer conv5_3
I0310 13:27:15.135629 21839 net.cpp:408] conv5_3 <- conv5_2
I0310 13:27:15.135638 21839 net.cpp:382] conv5_3 -> conv5_3
I0310 13:27:15.141980 21839 net.cpp:124] Setting up conv5_3
I0310 13:27:15.141994 21839 net.cpp:131] Top shape: 1 512 41 41 (860672)
I0310 13:27:15.141999 21839 net.cpp:139] Memory required for data: 953531648
I0310 13:27:15.142005 21839 layer_factory.hpp:77] Creating layer relu5_3
I0310 13:27:15.142014 21839 net.cpp:86] Creating Layer relu5_3
I0310 13:27:15.142017 21839 net.cpp:408] relu5_3 <- conv5_3
I0310 13:27:15.142022 21839 net.cpp:369] relu5_3 -> conv5_3 (in-place)
I0310 13:27:15.142352 21839 net.cpp:124] Setting up relu5_3
I0310 13:27:15.142365 21839 net.cpp:131] Top shape: 1 512 41 41 (860672)
I0310 13:27:15.142371 21839 net.cpp:139] Memory required for data: 956974336
I0310 13:27:15.142374 21839 layer_factory.hpp:77] Creating layer pool5
I0310 13:27:15.142381 21839 net.cpp:86] Creating Layer pool5
I0310 13:27:15.142385 21839 net.cpp:408] pool5 <- conv5_3
I0310 13:27:15.142390 21839 net.cpp:382] pool5 -> pool5
I0310 13:27:15.142448 21839 net.cpp:124] Setting up pool5
I0310 13:27:15.142455 21839 net.cpp:131] Top shape: 1 512 21 21 (225792)
I0310 13:27:15.142459 21839 net.cpp:139] Memory required for data: 957877504
I0310 13:27:15.142462 21839 layer_factory.hpp:77] Creating layer fc6_un
I0310 13:27:15.142480 21839 net.cpp:86] Creating Layer fc6_un
I0310 13:27:15.142485 21839 net.cpp:408] fc6_un <- pool5
I0310 13:27:15.142491 21839 net.cpp:382] fc6_un -> fc6_un
I0310 13:27:15.981009 21839 net.cpp:124] Setting up fc6_un
I0310 13:27:15.981034 21839 net.cpp:131] Top shape: 1 4096 15 15 (921600)
I0310 13:27:15.981039 21839 net.cpp:139] Memory required for data: 961563904
I0310 13:27:15.981047 21839 layer_factory.hpp:77] Creating layer relu6
I0310 13:27:15.981060 21839 net.cpp:86] Creating Layer relu6
I0310 13:27:15.981063 21839 net.cpp:408] relu6 <- fc6_un
I0310 13:27:15.981072 21839 net.cpp:369] relu6 -> fc6_un (in-place)
I0310 13:27:15.981400 21839 net.cpp:124] Setting up relu6
I0310 13:27:15.981412 21839 net.cpp:131] Top shape: 1 4096 15 15 (921600)
I0310 13:27:15.981416 21839 net.cpp:139] Memory required for data: 965250304
I0310 13:27:15.981420 21839 layer_factory.hpp:77] Creating layer drop6
I0310 13:27:15.981431 21839 net.cpp:86] Creating Layer drop6
I0310 13:27:15.981434 21839 net.cpp:408] drop6 <- fc6_un
I0310 13:27:15.981441 21839 net.cpp:369] drop6 -> fc6_un (in-place)
I0310 13:27:15.981477 21839 net.cpp:124] Setting up drop6
I0310 13:27:15.981487 21839 net.cpp:131] Top shape: 1 4096 15 15 (921600)
I0310 13:27:15.981490 21839 net.cpp:139] Memory required for data: 968936704
I0310 13:27:15.981493 21839 layer_factory.hpp:77] Creating layer fc7_un
I0310 13:27:15.981505 21839 net.cpp:86] Creating Layer fc7_un
I0310 13:27:15.981509 21839 net.cpp:408] fc7_un <- fc6_un
I0310 13:27:15.981515 21839 net.cpp:382] fc7_un -> fc7_un
I0310 13:27:16.119762 21839 net.cpp:124] Setting up fc7_un
I0310 13:27:16.119786 21839 net.cpp:131] Top shape: 1 4096 15 15 (921600)
I0310 13:27:16.119791 21839 net.cpp:139] Memory required for data: 972623104
I0310 13:27:16.119801 21839 layer_factory.hpp:77] Creating layer relu7
I0310 13:27:16.119812 21839 net.cpp:86] Creating Layer relu7
I0310 13:27:16.119815 21839 net.cpp:408] relu7 <- fc7_un
I0310 13:27:16.119823 21839 net.cpp:369] relu7 -> fc7_un (in-place)
I0310 13:27:16.120031 21839 net.cpp:124] Setting up relu7
I0310 13:27:16.120039 21839 net.cpp:131] Top shape: 1 4096 15 15 (921600)
I0310 13:27:16.120043 21839 net.cpp:139] Memory required for data: 976309504
I0310 13:27:16.120046 21839 layer_factory.hpp:77] Creating layer drop7
I0310 13:27:16.120057 21839 net.cpp:86] Creating Layer drop7
I0310 13:27:16.120061 21839 net.cpp:408] drop7 <- fc7_un
I0310 13:27:16.120065 21839 net.cpp:369] drop7 -> fc7_un (in-place)
I0310 13:27:16.120101 21839 net.cpp:124] Setting up drop7
I0310 13:27:16.120107 21839 net.cpp:131] Top shape: 1 4096 15 15 (921600)
I0310 13:27:16.120111 21839 net.cpp:139] Memory required for data: 979995904
I0310 13:27:16.120113 21839 layer_factory.hpp:77] Creating layer score_fr
I0310 13:27:16.120126 21839 net.cpp:86] Creating Layer score_fr
I0310 13:27:16.120129 21839 net.cpp:408] score_fr <- fc7_un
I0310 13:27:16.120136 21839 net.cpp:382] score_fr -> score_fr
I0310 13:27:16.123059 21839 net.cpp:124] Setting up score_fr
I0310 13:27:16.123071 21839 net.cpp:131] Top shape: 1 40 15 15 (9000)
I0310 13:27:16.123075 21839 net.cpp:139] Memory required for data: 980031904
I0310 13:27:16.123081 21839 layer_factory.hpp:77] Creating layer upscore_normal
I0310 13:27:16.123097 21839 net.cpp:86] Creating Layer upscore_normal
I0310 13:27:16.123103 21839 net.cpp:408] upscore_normal <- score_fr
I0310 13:27:16.123112 21839 net.cpp:382] upscore_normal -> upscore_normal
I0310 13:27:16.123368 21839 net.cpp:124] Setting up upscore_normal
I0310 13:27:16.123374 21839 net.cpp:131] Top shape: 1 40 32 32 (40960)
I0310 13:27:16.123378 21839 net.cpp:139] Memory required for data: 980195744
I0310 13:27:16.123389 21839 layer_factory.hpp:77] Creating layer loss
I0310 13:27:16.123404 21839 net.cpp:86] Creating Layer loss
I0310 13:27:16.123409 21839 net.cpp:408] loss <- upscore_normal
I0310 13:27:16.123414 21839 net.cpp:408] loss <- label
I0310 13:27:16.123420 21839 net.cpp:382] loss -> loss
I0310 13:27:16.123431 21839 layer_factory.hpp:77] Creating layer loss
…
